[net]
# Testing
batch=1
subdivisions=1
# Training
;batch = 64
;subdivisions = 64
width = 1536
height = 864
channels = 3
momentum = 0.9
decay = 0.0005
angle = 0
saturation = 1.5
exposure = 1.5
hue = .1

learning_rate = 1e-5
burn_in = 1000
max_batches = 2000
policy = steps
steps = 2000,2250
scales = .1,.1

[convolutional]
batch_normalize = 1
filters = 16
size = 3
stride = 1
pad = 1
activation = leaky

[maxpool]
size = 2
stride = 2

[convolutional]
batch_normalize = 1
filters = 32
size = 3
stride = 1
pad = 1
activation = leaky

[maxpool]
size = 2
stride = 2

[convolutional]
batch_normalize = 1
filters = 64
size = 3
stride = 1
pad = 1
activation = leaky

[maxpool]
size = 2
stride = 2

[convolutional]
batch_normalize = 1
filters = 128
size = 3
stride = 1
pad = 1
activation = leaky

[maxpool]
size = 2
stride = 2

[convolutional]
batch_normalize = 1
filters = 256
size = 3
stride = 1
pad = 1
activation = leaky

[maxpool]
size = 2
stride = 2

[convolutional]
batch_normalize = 1
filters = 512
size = 3
stride = 1
pad = 1
activation = leaky
stopbackward = 1

[maxpool]
size = 2
stride = 1

[convolutional]
batch_normalize = 1
filters = 1024
size = 3
stride = 1
pad = 1
activation = leaky

###########

[convolutional]
batch_normalize = 1
filters = 256
size = 1
stride = 1
pad = 1
activation = leaky

[convolutional]
batch_normalize = 1
filters = 512
size = 3
stride = 1
pad = 1
activation = leaky

[convolutional]
size = 1
stride = 1
pad = 1
filters = 14
activation = linear
#stopbackward=1


[yolo]
#mask = 3,4,5
#anchors = 10,14,  23,27,  37,58,  81,82,  135,169,  344,319
mask = 0,1
;anchors = 29.2225,29.6818, 64.6086,69.0085, 138.8812,129.0774
anchors = 13.1927,17.2550, 20.2025,24.3619

classes = 2
num = 3
jitter = .3
ignore_thresh = .7
truth_thresh = 1
random = 0

[route]
layers = -4

[convolutional]
batch_normalize = 1
filters = 128
size = 1
stride = 1
pad = 1
activation = leaky

[upsample]
stride = 2

[route]
layers = -1, 8

[convolutional]
batch_normalize = 1
filters = 256
size = 3
stride = 1
pad = 1
activation = leaky

[convolutional]
size = 1
stride = 1
pad = 1
filters = 14
activation = linear


[yolo]
#mask = 1,2,3
#anchors = 10,14,  23,27,  37,58,  81,82,  135,169,  344,319
mask = 0,1
;anchors = 29.2225,29.6818, 64.6086,69.0085, 138.8812,129.0774
anchors = 13.1927,17.2550, 20.2025,24.3619

classes = 2
num = 6
jitter = .3
ignore_thresh = .7
truth_thresh = 1
random = 0
